Coffee_Inspection_Service/Models/TestModel/crossValidation.pth (torch_old, 470613 bytes, 8 tensors)

layer1.0.weight f4 [32, 1, 3, 3]
00000000: 4ef2 9ebe 3cd0 1cbd 7d38 11bd cf9b 91bd
00000010: 870f 993e 3781 843e 4671 e13d 8d08 aebc
00000020: 9a7c d43d 7c29 47be d490 1fbe 8c9b c03c
00000030: aec2 8ebe f6c5 723d 2104 0d3e 2241 a73e
00000040: ef52 813e 1c54 0fbe 4078 343e 8c08 f73e
00000050: c9cb 603f fa9f e2bb 8a35 dfbd 61aa 12bd
00000060: 1655 fc3e 0b72 c73e d76b 073f bd1a 36bd
00000070: b719 80be 9b28 e9bd fbb4 8abd e64b 5b3d
00000080: bafe 063d 4699 bc3e f2c1 8ebd 9932 b83e
00000090: 96a9 813e f6ef 043e a982 843d 721f 58bd
000000a0: 9b16 83be 3c60 54bd 5f93 393e 9fa2 983e
000000b0: bc95 9ebe 5dba 97be 7dca 3ebc 6b5b e9bd
000000c0: e7d9 8fbd 0b62 9d3c b82f bd3e f51f 59be
000000d0: 5431 babd 8aab 9f3e 9c4f 273e 9202 693e
000000e0: 3b6d 9abe 3de7 a43d 9768 973e 2fde cd3c
000000f0: f690 fe3d 307b afbe 771c 54be 6b6e 3fbe
00000100: 9d94 233e c6d7 ac3e 79c5 d33d f236 9ebe
00000110: 4ae0 debd 7463 933d d877 4dbd 8b25 0fbe
00000120: 21fe 22be 4284 62be 1561 56be beed b83e
00000130: 8bb5 9cbe 3727 18be 6840 35bd 0d1d 34be
00000140: b0f0 243e f198 a5be 7036 a03d b9fe 3e3e
00000150: 6100 693e f4aa e2be 00b9 e8bc 8400 b53e
00000160: bf4b 323e f4dd 8e3e cc09 b4be 62cb aabe
00000170: a018 363e 9f36 863e c9b3 ba3e 75e0 a83e
00000180: 0895 1c3e f5e6 4f3e a7bd 483e 2274 223e
00000190: e50f a03c 782c 60be b461 49bd 1e2a 31bd
000001a0: 9450 4c3e e211 1a3e f476 a8be 513b b7be
000001b0: be90 4dbe db41 043e fdcf a23e 03e2 5abd
000001c0: 869b f1bd d489 773e 9909 9dbe 0818 2ebe
000001d0: 39af e0bd db60 e13d ce60 0f3e c486 aebe
000001e0: 47aa 89be 5805 e23d 3d57 b53e e1f2 543e
000001f0: b46e 083e b7e7 3ebe c116 3dbe eb27 a83e
00000200: 01ac 6f3e f677 803e b74d 04be 7d3a 133e
00000210: fb87 b1be befc 22be e979 ca3d a2a8 123e
00000220: bd04 45be 615f 053e f4b6 4b3f 046c 1fbe
00000230: 8f80 d03e 467a 9b3e 824b 20be c438 a03d
00000240: 546d 03be a28b c6be 642c 403d 069f e5bc
00000250: ecdb 94be 1796 58bd a88b 2bbe 3ec1 e7bd
00000260: d56d ae3e b4c8 d0bd 73de 4dbe f246 f13d
00000270: 8dcb b7bd f945 6bbe 7563 22bd 7473 833c
00000280: 4933 83bd 7347 b53e b281 123e 7eae 14be
00000290: d763 d93c ff92 3d3e 7b54 c9bd b2ac a0be
000002a0: 78a0 ea3d 574c cbbd 83e6 893e ecd8 4f3e
000002b0: 550f 613d d418 b73e f647 173e bc47 703e
000002c0: c9f6 f23d ed06 de3c 5458 233d d758 79be
000002d0: d84b fe3d ab7a 7fbe ba08 92be e190 9dbe
000002e0: 6609 6f3e fb53 b13e ccf0 dfbd 06e1 5c3e
000002f0: 81d5 aa3e ee0f ac3e 3e9c 74be 0580 25be
00000300: 588b 253e 6a4a aa3e e349 583e 0487 2a3e
00000310: 87f4 b2be 6bc5 a83c fecf 85be 91f3 013e
00000320: 77a3 0a3d 7c5f 603e 01ad a3bd 3a05 6f3d
00000330: a49c cc3e 106b 323e 838e b1be 8b4a 66be
00000340: 7ff6 6a3e 0317 60be e47a bfbd da98 a03e
00000350: b2e6 32be 84ec c53d b805 60be e41b ce3c
00000360: d887 873e 6c31 89be 2cc1 a6bd 09ac 803d
00000370: 6be2 69be b5a9 993e 2999 3bbe 43ea 623e
00000380: e21c 83be f576 7e3e 6648 743e 6061 b5bb
00000390: fe0d 82bd 181f 263d c784 bfbe 3949 25be
000003a0: df1b 90be 63f2 dcbd 0a8a 83be 47ea a13e
000003b0: ba92 b13d 5baf b5bd 9775 9fbe 116c febd
000003c0: 6ac9 033d 7b30 febd 8a09 253e a98f 54be
000003d0: b12a d8bc 9ca2 813e cd30 16be 508f ad3c
000003e0: e890 f6bd a5a0 b13e 818a 4cbe 507e d6bd
000003f0: b8dd 9f3e ba18 a33e 4c25 463d a463 483d
-0.3104424 -0.038284525 -0.035454262 -0.07109796 0.2989466 0.25879833 0.11007933 -0.021244312
0.10375328 -0.19449419 -0.15582591 0.02351167 -0.27882904 0.05927082 0.13771106 0.3266688
0.25258586 -0.13996929 0.17623997 0.48248708 0.8781095 -0.0069160433 -0.10898884 -0.035807017
0.49283665 0.38954195 0.52898926 -0.044459093 -0.2501962 -0.11384698 -0.067728005 0.05353918
0.03295777 0.36835688 -0.06970586 0.35976103 0.25324696 0.12982163 0.06470234 -0.052764364
-0.25603184 -0.05184959 0.18122624 0.2981157 -0.30973613 -0.2963437 -0.011644957 -0.1139439
-0.070239834 0.01921179 0.3695047 -0.21203597 -0.0909144 0.3118556 0.16338962 0.22754887
-0.3016146 0.08051918 0.29571983 0.02513036 0.12429993 -0.34273672 -0.20713983 -0.18694465
0.1597466 0.33758372 0.10340399 -0.30901295 -0.108826235 0.071967036 -0.05016312 -0.13979165
-0.15917255 -0.22120765 -0.20935471 0.36118883 -0.30607256 -0.1485871 -0.044250876 -0.17589207
0.1610744 -0.32343248 0.07822883 0.18651856 0.22754051 -0.44271052 -0.028408527 0.35351956
0.17411707 0.27903712 -0.35163724 -0.33358294 0.17782831 0.26213548 0.3646529 0.32983747
0.15291226 0.20302947 0.19603597 0.15864614 0.01953883 -0.21891963 -0.049165443 -0.043253057
0.19952613 0.15045884 -0.32903254 -0.35787442 -0.20074746 0.12915747 0.31799307 -0.053438198
-0.11797242 0.24173671 -0.30671385 -0.17001355 -0.10970921 0.11004802 0.14001772 -0.34087193
-0.26887724 0.110361755 0.3541812 0.20795776 0.1332348 -0.1864308 -0.18465711 0.32842955
0.23405458 0.25091523 -0.12920271 0.1437778 -0.34674057 -0.15916726 0.09886534 0.14322141
-0.19240089 0.13024665 0.7957604 -0.15568548 0.40723082 0.30366725 -0.15653804 0.07823327
-0.12834674 -0.38778406 0.046917334 -0.02802993 -0.29074037 -0.05287751 -0.16752493 -0.11316155
0.3406817 -0.10194531 -0.20104389 0.1178111 -0.08974371 -0.22975911 -0.03964563 0.016046263
-0.06406266 0.35406074 0.14307287 -0.14519688 0.026536865 0.18513106 -0.098305665 -0.31381756
0.11456388 -0.0992667 0.2693368 0.20297593 0.054946262 0.3576113 0.14773545 0.23464864
0.11863477 0.027102912 0.03987916 -0.24350296 0.1241681 -0.24949138 -0.28522283 -0.30774596
0.23343429 0.34634385 -0.109346 0.21570215 0.33366016 0.33605903 -0.23887727 -0.16162117
0.16166437 0.33259898 0.21121936 0.16653067 -0.34952185 0.020601949 -0.26135248 0.1269057
0.0338473 0.21911424 -0.07991982 0.058354594 0.39963257 0.17423654 -0.3467904 -0.22489373
0.22945593 -0.21883778 -0.093496114 0.31366616 -0.17470816 0.096642524 -0.21877182 0.025159784
0.26470828 -0.26795518 -0.08142313 0.06282813 -0.22840278 0.3001229 -0.18320145 0.22159676
-0.25607973 0.24850066 0.23855743 -0.0055352896 -0.06350325 0.040556997 -0.3740599 -0.16141213
-0.28146264 -0.10788419 -0.25691253 0.31624052 0.08670564 -0.08871337 -0.311444 -0.12422956
0.032174505 -0.12411591 0.1611692 -0.20757927 -0.026387544 0.25319374 -0.14667054 0.0211865
-0.120393574 0.34692875 -0.1997471 -0.10473311 0.31223845 0.31854802 0.048375413 0.04892315

layer1.0.bias f4 [32]
00000000: 3e14 d43c 7d06 d1bd 20cb 86bd 97eb 8e3e
00000010: d15e a6be 125c 0e3e 54cd 683e 908f 253e
00000020: 7389 09be 05a2 41be bd7d 9a3d 5158 5f3e
00000030: 6db3 723e 845c 24be 986a 4dbe 7469 ab3c
00000040: 9bc8 40be 6230 59be c9ba 633d 2be0 43be
00000050: 5ba5 2b3d 1dd5 e4bd 03c6 46bd 286c e9bd
00000060: 5b62 423e b24f 273e fece 29be 148a 523e
00000070: 8d3e 6abe 20cb 44be 391f 5e3e 9cb6 503e
0.025888558 -0.10206316 -0.06581712 0.27914116 -0.32494214 0.1390231 0.22734576 0.16168046
-0.13431339 -0.18909462 0.07543514 0.21811034 0.23701258 -0.16050917 -0.20060194 0.020924307
-0.18826525 -0.21209863 0.055598054 -0.19128482 0.041905742 -0.11173461 -0.048528682 -0.11397582
0.18982832 0.16338995 -0.16582868 0.20560485 -0.22875424 -0.19218111 0.21691598 0.2038216

layer2.0.weight f4 [64, 32, 3, 3]
00000000: dcf8 85bd aeea 91bd 4ff0 85bd cff4 963d
00000010: a26c d5bc 7caf a43d 8bbf 733d 8a13 f0bc
00000020: 706b 883d b764 b4bd 8cfe 12be 4ed6 9fbe
00000030: a4bd 7fbe 1274 65be 507a 92bd 14b8 483c
00000040: 92e7 74bc 8f70 8dbd 7933 7ebd a42f 07bd
00000050: eba4 69bc 606f 81bd 4c30 a2bd 95bd 1bbd
00000060: 8913 ab3c 78cd cc3c 30a6 4a3c 4cb0 69bd
00000070: ab66 62bd eeab cbbc 13ea 0fbd 7771 f3bc
00000080: 15e1 d4bc 746c 7dbd eb88 b6bc ee4b b4bb
00000090: df1c 113e 8f1b b83d 0707 3d3d d05b 013e
000000a0: f4e1 b93d eec9 1c3d 30f3 a93d 9b58 073e
000000b0: 6fc7 8d3d b766 753d 9ac8 5b3d 8441 d73b
000000c0: 5feb 923c eff1 b83d b12f 413d b9e1 a83d
000000d0: 8336 053e 9910 133e dcb1 3b3d bb3d 873d
000000e0: d50c dabc 0e9f 6fbc 3718 14be bb3a 8fbd
000000f0: 1913 27bd 66ca d6bd 92ff eb3c d09a 623c
00000100: 1dbb eb3d 24fb d93d 1276 083e becd 0d3d
00000110: 3677 563a 3f15 b13d 550e 973d 1d00 963d
00000120: 22d6 de3c 1857 833c a076 973d e049 a3ba
00000130: 483a 523d 69f3 b03d 7508 513c bb82 9b3d
00000140: 2290 59bd 827c bc39 fc95 943d e7c2 e0bc
00000150: d4be b1bd ca75 2ebc be4c fcbc b4cf 9ebd
00000160: 9fb1 d8bc 78f9 9c3d 7244 a9bd 99bc e2bb
00000170: ffea 0bbd 48e7 e23c 5639 3b3d 319d 82bd
00000180: f11f 8bbd 44b1 723a 1ca2 283d 3f46 02be
00000190: 42b7 32bc 1627 103c 775a a73c 79eb adbd
000001a0: 08f6 b2bd da71 e43b 5868 f63c d9b4 90bc
000001b0: a514 f4bd b712 6bbd 2280 44bd d595 b4bc
000001c0: febe 043c ced7 30bc 8160 f43d b9b9 063e
000001d0: ddd2 7e3d 375f 073d af23 74bd 0912 82bd
000001e0: 6bd6 d73c 64f1 44bd 11ad 193d 0fde 90bd
000001f0: 5fc9 453d c6ff 683c 6319 52bc 65bc 0ebd
00000200: 93e5 5ebc 314c 473d 2040 c0bd 22f6 833d
00000210: 0d9f c83d 0478 41bc 9a4b 303d cbc3 9ebd
00000220: 4aa8 a0bd 7705 19bd a28d 39bd 4a02 93bd
00000230: f2e7 49bd 8ee0 f23c 289d a3bd 3c9f 9cbd
00000240: 7433 e5bc 95d9 89bc 361c 703d 187e 57bd
00000250: 26f5 81bd b24b c03b 98ed 0f3d de46 32bd
00000260: 34ab 42bd ccd7 d0bb 110a 8c3d ed66 95bd
00000270: 735b a2bd e69b e93b 9d1f 19bd 0eac b0bd
00000280: 313f bf3c 1f12 f3bc c4e8 553d ee02 8b3c
00000290: 2218 383d c73b cb3d 1877 7a3d f5b6 e73d
000002a0: 5956 8d3d bea7 9bbd aa46 91bd af7c a4bd
000002b0: b627 893c 52b5 08be c901 713d 14e3 e9bd
000002c0: 5e31 8bbb f20e 45bd f645 d53c c2f6 1fbc
000002d0: 330d 8abd c3d2 12be 788a 893d f891 623d
000002e0: 7977 cc3c 95a8 6d3d 187f 103d 5da1 a1bb
000002f0: c790 7e3d 6652 0fbd ce1c 95bc fd1a 4f3c
00000300: d189 593d 3a4b 193d 5dfd 673d 7a4e 5dbc
00000310: 5af9 a0ba 4f89 013d 0991 cb3d 3113 db3c
00000320: 6458 4e3b d5e3 813d c24b 2bbd 0d49 0abd
00000330: 5777 a0bd af10 983c 46bf 2e3d a5be 94bd
00000340: a91b c13d 53d0 e73d 2e20 e9bd 9d3a 0f3d
00000350: 8c50 a33b 55d9 fe3d 8d82 8d3c 655c 93bd
00000360: 25b2 34be c26b 38bd f3a3 b5bd 13e6 b9bd
00000370: 468f d9bc 7695 edbd 934f 6dbd 38ad dfbc
00000380: 728a 0abe 4689 433c 14f1 3d3d d6df 813d
00000390: baaa db3c 00ad 9e3c 2ffa e7bd 7cda 893d
000003a0: 754c 3bbd fb1d abbd 092a 31bd ac89 a13a
000003b0: bb2f a63d 41ae 87bd c6e8 60bd fbf4 ee3c
000003c0: 4819 173d e112 1cbd 954f dabc 3199 7a3d
000003d0: 1fd7 853c 6e7d 0b3d 2a7e 023d 33d9 a7bd
000003e0: 9eed 50bc 59a8 42bd 259c afbd 0cf0 203d
000003f0: 3de0 0c3a b668 303e 3bcd 0f3c 8eda 01bc
-0.06541607 -0.0712484 -0.06539976 0.07370912 -0.026052777 0.080412835 0.05950884 -0.029306192
0.06661117 -0.08808272 -0.14354914 -0.3121819 -0.24974686 -0.22407559 -0.071522355 0.012250919
-0.014947789 -0.069062345 -0.062060807 -0.033004418 -0.014260511 -0.06320071 -0.07919368 -0.038022596
0.020883339 0.025000319 0.012368724 -0.057052895 -0.055273693 -0.024862256 -0.03513534 -0.02971719
-0.025986234 -0.061871007 -0.022282084 -0.0055022156 0.1417117 0.089896314 0.04614928 0.1263268
0.090763 0.038278513 0.082983375 0.13217394 0.069228046 0.05991241 0.053658105 0.0065690894
0.0179345 0.0903052 0.047164623 0.08246178 0.13009076 0.143618 0.045823917 0.06603571
-0.026617447 -0.014625324 -0.14462362 -0.06993624 -0.040789697 -0.10487823 0.028808389 0.0138308555
0.115102984 0.106436044 0.1332629 0.03462004 0.0008181216 0.086466305 0.073757805 0.0732424
0.027201716 0.01603274 0.07395673 -0.001245793 0.051325113 0.08640177 0.012758364 0.07593294
-0.05311597 0.0003595092 0.0725517 -0.027436687 -0.08678976 -0.0106482 -0.030798312 -0.0775446
-0.026451884 0.0766477 -0.08265008 -0.0069194552 -0.034159657 0.027698174 0.045708977 -0.06377638
-0.06793202 0.0009257982 0.041170225 -0.1272211 -0.01090795 0.008798381 0.02042888 -0.084921785
-0.08738333 0.00697158 0.030079052 -0.01766436 -0.11918 -0.057390895 -0.04797376 -0.022044102
0.008102177 -0.010793639 0.11932469 0.13156785 0.062212814 0.03304979 -0.059604343 -0.06351096
0.02634736 -0.04808177 0.037518565 -0.07073604 0.048287746 0.014221137 -0.0128234355 -0.034847636
-0.013604539 0.048656646 -0.09387231 0.064434305 0.097959615 -0.011808399 0.04304085 -0.07752188
-0.078445986 -0.037358727 -0.045301087 -0.07178171 -0.049293466 0.029648092 -0.079889596 -0.07647559
-0.027978636 -0.016827384 0.058620654 -0.052610487 -0.063455865 0.0058683986 0.035138696 -0.043524615
-0.047526553 -0.0063733812 0.068378575 -0.07295022 -0.07927599 0.0071291802 -0.037383664 -0.08626567
0.023345562 -0.029671727 0.052223936 0.01696917 0.04494489 0.09923511 0.061148733 0.11314193
0.06901235 -0.07600354 -0.07093556 -0.08031594 0.016742568 -0.13350418 0.058839593 -0.11420265
-0.0042478284 -0.048109956 0.026034337 -0.0097634215 -0.06740799 -0.14338212 0.06715864 0.055314988
0.024959313 0.0580221 0.035277456 -0.004932566 0.06214979 -0.03499069 -0.018202212 0.012640712
0.053109948 0.037425257 0.05663811 -0.01350748 -0.0012281344 0.03162509 0.09939773 0.02674255
0.003148579 0.06342284 -0.041820295 -0.033761073 -0.07835262 0.018562643 0.04266288 -0.07262925
0.09429104 0.113190316 -0.11383091 0.034968007 0.004983967 0.124437965 0.017274166 -0.07195357
-0.17646082 -0.04502464 -0.088691615 -0.09077086 -0.026557576 -0.11600773 -0.057937216 -0.027304277
-0.13529375 0.011934584 0.04637249 0.063415214 0.026814807 0.019369602 -0.113270156 0.06731126
-0.045727212 -0.08355328 -0.04325298 0.0012324355 0.081145726 -0.06625033 -0.05490949 0.02916955
0.036889344 -0.03810394 -0.026649276 0.06118125 0.01633793 0.034055166 0.0318586 -0.08195724
-0.012751965 -0.04752383 -0.08574704 0.039291427 0.000537399 0.17227444 0.008776958 -0.007925643

layer2.0.bias f4 [64]
00000000: 4482 f2bc 1e28 57bd 69ca b6bb 1170 8d3c
00000010: 3b70 8dbd 3920 16bd f163 cdbc e9e2 24bd
00000020: 2c78 b83c 4028 18bd 6545 8bbc 6123 4cbd
00000030: b80f c03b 2480 f3bc 0263 b5bd bf03 523c
00000040: e1f0 00bd 748a a8bd aec3 f5bc 4a8c cf3c
00000050: b5dd d13c 8994 96bd 7bec 4f3d 9cfc 75bd
00000060: bc97 0dbd 353c 283d d6c3 3abd 439c d43c
00000070: d182 18bd de2a 0e3d 97df 4ebc fcc7 89bd
00000080: aabd a03b b28e 85bd 7782 0cbd 1ce3 10ba
00000090: ecdc a6bd c652 d2bd 386b ac3b 4367 883d
000000a0: 7322 95bd afd7 5bbc 404c bb3c 0589 39ba
000000b0: e33a 08bd e012 f13c 82c3 64bd dbfd a6bc
000000c0: 0eb5 42bc c63a 4dbc 2b5e b9bc b557 95bc
000000d0: 2b99 7ebd 266c df3c 3368 04bd aab9 00bd
000000e0: fd13 d7bd 9701 50bd cfd3 38bc 9774 853c
000000f0: 6476 45bd 1553 af3c 87e2 09bc 2e86 903c
-0.029603131 -0.052528493 -0.0055783284 0.017265351 -0.06906172 -0.036651824 -0.02507207 -0.04025546
0.02251824 -0.03714776 -0.017000863 -0.049838427 0.005861249 -0.029724188 -0.08856775 0.012818276
-0.03147972 -0.08229533 -0.030000534 0.02533545 0.025618413 -0.073525496 0.050762635 -0.06005536
-0.034568533 0.041073043 -0.04559692 0.025953418 -0.03723413 0.03470885 -0.01262655 -0.06727597
0.004905422 -0.065213576 -0.03430411 -0.0005527006 -0.08147606 -0.10269694 0.005261805 0.066603206
-0.07281961 -0.013418122 0.022863507 -0.00070776074 -0.033259284 0.029427946 -0.055850513 -0.02038472
-0.011883987 -0.01252622 -0.02262791 -0.018230299 -0.06215779 0.027273249 -0.032325935 -0.031427063
-0.10501859 -0.050782766 -0.011280968 0.016290946 -0.04820861 0.021401921 -0.008415825 0.017642107

layer3.0.weight f4 [128, 64, 3, 3]
00000000: 5dd6 ca3c 2393 c9bd 5242 f93c 0a3d b9bd
00000010: c440 d6bd ec0f b83c 5a4b a0bd 4fab 983c
00000020: 089b bfbd 9348 113e 175f 36bb 2ac6 85bc
00000030: 525b 0e3c 0fea 193c 83bc 733d 5368 d53d
00000040: 3740 3c3c 926b 11bb 74c1 92bd cd1a 133c
00000050: a9f9 c73c 801f 1cbd 2a75 b9bc 9d47 c2bb
00000060: c248 f4bc 1799 8bbd 47e7 163e 06c5 7dbc
00000070: 9d4c 05bd 09ab 223d c2bd 52bb 2272 723d
00000080: d1b3 983d 4585 8c3b 4baa 24bd 3f95 fcbc
00000090: 18e8 773c c631 2cbe acaf c93d 04b3 01bd
000000a0: c4bf 163d 0abd 60bc eff9 4fbd 6132 333d
000000b0: 9e5a c03d a47d b13d a990 e23a 0dce d7bc
000000c0: d464 ab3d fa31 4fbd f4f1 eb3b 433b 603d
000000d0: a861 12bc b9bf 8e3d 27f2 84bb 5754 8bbd
000000e0: ed24 9e3c 33c4 073e f387 773d 3c23 91bd
000000f0: e882 aabd 8d96 07be 414e 9f3c f78e c53d
00000100: 06e5 ebbb ba25 03be 190d 4c3d 978d 6dbc
00000110: 9911 5fbd f447 8d3d f9bc 97bc 3aa4 f83c
00000120: 0a63 92bd 872c 05bd ae86 14bd 7b95 7f3d
00000130: 3c0f 083c 456f f1bc dde2 2d3d 8eec eabc
00000140: 1c59 dfbd a637 be3b 200c bf3a 96ea e0bd
00000150: 2764 70bd d7ed 9dbc 47fb aabc c189 f2bb
00000160: 8ca4 d7bd 7260 4d3d e0a6 0dbd d2b2 fdb7
00000170: 3adc 163b b5d7 243a f8e0 96bd cf9e 233c
00000180: eec7 b0bc fabb 0cbd bc01 ab3d b22b efbd
00000190: 2353 85bd ea11 89bd 01a5 3d3c 6084 143d
000001a0: 0d7c e9bd 9ce7 303c 6ea1 943b 1bbb 1abd
000001b0: 79a2 6e3d 56d0 92bc 3ca3 9d3c 631e 6c3d
000001c0: 7ee6 a6bc 8d02 363d 61d1 b3bc 8be8 573d
000001d0: 4109 f0bb 84c4 91bd 8881 9fbc f72c 323d
000001e0: 061a 0c3d 1c9f 46bd d4ff 12be 1a43 193c
000001f0: c0dd 60bd 2171 62bd 8712 273c 1c41 55bd
00000200: 9cef 5a3d dfb0 943d 57fd 1dbe e20e fdbd
00000210: 442f 0bbd 0d56 5a3d 74e9 b9bc b51f 513d
00000220: 3648 7ebd 6b58 1fbe da09 963d 9742 b3bd
00000230: 1596 bbbd 8b2c 76bd 3f09 bdbd 0331 a63d
00000240: 68b4 2abe fd57 75bd 7eaf 7d3d b2d8 093d
00000250: be53 dabd f51f acbd b19b 863d 0ddc 61bc
00000260: 656b 23bd 2711 1e3d 3d0d 4f3c 84ee 2e3c
00000270: 4e9c 843c 2b86 ad3c e309 72bc a8b6 88bd
00000280: c664 07bd b83e 57bd c1d3 0fbd 10aa b8bd
00000290: 9542 3a3c 0c32 6fba bbbe fcbd 3158 f5bd
000002a0: ccbb 8b3c ff62 10be 5d6b ddbc 2236 6ebd
000002b0: 6851 16bd 2b9b 93bd de3d 653d b05f fbbb
000002c0: d777 203d d117 05bb 067b 4dbc c14b 8ebd
000002d0: 2179 e63d 2a76 04bd a799 0f3d 552e 0a3d
000002e0: fd0d 39bd 3a46 343d 605c 833d b9f6 1abd
000002f0: 180c bdbc f07d 983d 752e 8c3c f867 1a3d
00000300: 2224 4a3d 24db 803d bea1 563b 6fd4 0abd
00000310: 5918 633d a8ee bfbc 7572 b7bc 9350 c9bb
00000320: b63e 803d 6bf2 4d3b 105a 8dbd 02a1 adbc
00000330: 651b 853c 5498 3c3c 6fd4 253c 6be8 c23d
00000340: c5f4 39bd f788 70bd 42aa dcbb b19c 8abd
00000350: aab9 a9bd 8cda 603d 3c84 293d 3364 963a
00000360: b441 d9bb 8515 ccbd 730a 8e3d d1ca 7c3c
00000370: 61dc b1bc 253f 953c 9cec a7bd 5a7f 61bd
00000380: 0022 1c3e b685 e03c c12b f53c 67c8 d6bd
00000390: f2bd 623c 13f9 883d ba61 efba b450 15be
000003a0: 813c 6dbc 07d0 883a cb92 ffbb 7152 0a3d
000003b0: 2aa5 66bd c9b3 2bbe 24ee 25be 2268 e5b9
000003c0: 6780 b53d 0ccc 843c 4d1c 68bc 0c83 1abe
000003d0: d630 2abd cc28 423c 2a0e 3a3d 7451 003d
000003e0: 3127 9f3d 6a8d dabc ff88 513c 1f3b 293d
000003f0: ef4e 343d d7a4 823c da25 53bd faa3 113c
0.02476042 -0.09842517 0.030427132 -0.090448454 -0.10461572 0.02246853 -0.07826872 0.018636374
-0.09355742 0.14187841 -0.0027827674 -0.016329844 0.008688765 0.009394183 0.05950595 0.10420289
0.011489919 -0.002218936 -0.071658045 0.008978558 0.02441104 -0.03811598 -0.022638876 -0.005928947
-0.02981985 -0.06816309 0.14736663 -0.015488869 -0.032543767 0.039713893 -0.0032156562 0.059190877
0.07456172 0.004288348 -0.040201467 -0.030832885 0.015131019 -0.16815862 0.0984796 -0.031664863
0.036803976 -0.013716945 -0.050775465 0.043749217 0.09392284 0.08666542 0.0017285544 -0.02634337
0.08368841 -0.05058477 0.007200474 0.054744016 -0.008934416 0.06970162 -0.004057187 -0.06803196
0.019304717 0.13258438 0.060432386 -0.070867985 -0.0832575 -0.13241024 0.019446494 0.09646409
-0.0071989326 -0.1280736 0.04981718 -0.01449909 -0.05446014 0.068984896 -0.018522726 0.030351747
-0.071477965 -0.032513168 -0.036261253 0.062398415 0.008304413 -0.029472003 0.04245268 -0.028677251
-0.10905668 0.0058049737 0.0014575757 -0.10982244 -0.058689263 -0.01927845 -0.020871771 -0.0074016755
-0.10529432 0.050140806 -0.034582973 -3.024322e-05 0.002301945 0.00062882464 -0.07367128 0.009986593
-0.021579709 -0.034358956 0.0834994 -0.11678256 -0.06509998 -0.0669287 0.0115749845 0.036259055
-0.11400614 0.0107974075 0.0045358455 -0.037776094 0.058260415 -0.017921608 0.019242875 0.057646167
-0.02037358 0.044436026 -0.021950426 0.052712005 -0.007325322 -0.071175605 -0.019470945 0.043499913
0.034204505 -0.048491582 -0.14355403 0.009354377 -0.054898977 -0.05528367 0.010197288 -0.052064046
0.053451166 0.07260298 -0.15428673 -0.12356354 -0.033980623 0.05330472 -0.022694327 0.05105563
-0.062080584 -0.15561073 0.07326098 -0.087529354 -0.09159485 -0.060101073 -0.09230279 0.08114817
-0.16670382 -0.059898365 0.06193494 0.033653922 -0.10660504 -0.08404533 0.065726645 -0.013785374
-0.03989734 0.038590576 0.012637434 0.010676984 0.016187813 0.02118214 -0.014772865 -0.06675464
-0.03305509 -0.052550048 -0.035114054 -0.09016812 0.011368413 -0.0009124584 -0.123410664 -0.11979712
0.017057322 -0.14100264 -0.027028734 -0.058157094 -0.03669873 -0.0720733 0.055967204 -0.007671319
0.03917679 -0.0020308385 -0.012541538 -0.06948043 0.11253572 -0.032339253 0.035058644 0.033735592
-0.045179356 0.044012286 0.064141035 -0.03783295 -0.023077056 0.07445896 0.017111996 0.03769681
0.049350865 0.06291798 0.0032750214 -0.033894 0.05544314 -0.02342923 -0.022393445 -0.0061436384
0.06261961 0.003142501 -0.06901944 -0.021194939 0.016248414 0.011510927 0.010121449 0.095169865
-0.045399446 -0.05872437 -0.0067341635 -0.06768168 -0.08287366 0.054895923 0.041385874 0.0011473953
-0.006630147 -0.09965042 0.06935587 0.015429215 -0.02171153 0.018218586 -0.081994265 -0.055053093
0.15247345 0.027407508 0.02992809 -0.104874425 0.013839232 0.06688132 -0.0018263378 -0.14581567
-0.014479757 0.0010437974 -0.0077994815 0.03377003 -0.056309856 -0.16767801 -0.16204125 -0.0004375587
0.088623814 0.016210578 -0.014166904 -0.15089053 -0.04155048 0.011850547 0.045423664 0.03132768
0.07771147 -0.02667876 0.01278901 0.041316148 0.04402059 0.015947742 -0.05154977 0.008889193

layer3.0.bias f4 [128]
00000000: 85a1 5cbc f4b9 bebc d350 b3bd d134 f5bb
00000010: 8949 a4bc d3b5 0dbd c3aa 92bd b947 8bbd
00000020: 835e 88bc fcce b2bd 8669 15bd e6cb afbc
00000030: 1028 58bd 5b8d 88bd 1285 88bd 5f17 0d39
00000040: a21a 6fbd f2c5 7dbc c8fb afbc d3f2 e1ba
00000050: 5629 31bd 3c97 a4bd c86b 40bd 3794 2abd
00000060: 89a1 97bd 4a04 fbbc df47 6fbd 75a3 3cbd
00000070: 0797 24bd 19de 57bc 1fab 24bd 057c bcbd
00000080: f668 17bd 7723 96bd 5efc 0fbd 195f 50bd
00000090: e2f5 30bd 6650 e2bc e72b f7bc a8a8 5fbd
000000a0: b732 28bd ee2b 09bd 31fb 6abd f0ed 223b
000000b0: c4db 23bd 5f34 8cbd b87a 91bd cdbe 3dbb
000000c0: a94d d5bc 8af8 92bd ebe6 1fbc b8bb 5abd
000000d0: 5cb6 9dbd 70bd 56bd 5f2f c3ba eb43 7dbc
000000e0: 8be5 9fbd 318c 85bd ea4a 55bc f8ad 4bbc
000000f0: 18fd 26bd 02e5 82bd f86d bfbc 6e65 68bd
00000100: 8a94 7fbc d7b0 1fbd 2347 7ebd e8cf 8ebd
00000110: 8a3b a3bc 23f3 8cbd ca90 cfbd cd40 79bc
00000120: cf02 77bd e719 6cbd 6d8b 18bd 351d c7bc
00000130: a4dc ecbc 75ae 75bd 7c4a f9bb 1590 bcbc
00000140: 90e5 eabc bcd0 10bd 20ca bcbc 93d2 6ebd
00000150: 643f 13bd 3cf1 21bd 5b80 06bd 29d7 42bd
00000160: 2b12 5ebd 199d 12bd 9ead 98bd 300e 02bd
00000170: d354 0dbd 0955 b0bd 8dc2 36bc 5301 46bc
00000180: 6d89 c7bc 3276 65bd f535 a0bd 590d 9cbd
00000190: d017 f4bd ff81 12bd 0277 b3bd b57a 38bc
000001a0: 9aeb 99bd 245e 38bd e0be 18bd 1f3e 39bd
000001b0: 0a32 ccbb 6096 e2bc fe19 3abd c7a9 c1bd
000001c0: 3fd5 f9bd 5010 77bd 217e 0fbd 8ca0 ba3b
000001d0: 6177 03bd 3b2b 7abd bce3 a4bc 4ed4 31bd
000001e0: ee74 b6bd 29ee 06be c8d1 5ebc 7068 1cbd
000001f0: 2f01 a1bd 5d4d 93bd eb52 80bd ffe6 95bd
-0.013466244 -0.023282029 -0.0875565 -0.007483103 -0.020054596 -0.03459723 -0.071614765 -0.068007894
-0.01664663 -0.087308854 -0.036477588 -0.021459531 -0.05277258 -0.066675864 -0.06666006 0.00013455514
-0.05837501 -0.015489088 -0.021482363 -0.0017238505 -0.04325231 -0.08036658 -0.04697779 -0.041645255
-0.07403857 -0.030641694 -0.05841815 -0.046054322 -0.040183093 -0.013175511 -0.040202256 -0.09203342
-0.036965333 -0.07330983 -0.035152785 -0.050871942 -0.043203242 -0.027626228 -0.030172301 -0.054604203
-0.04106399 -0.03348916 -0.05736846 0.002486106 -0.040004507 -0.068459265 -0.07103485 -0.0028952837
-0.026038008 -0.07176311 -0.009759645 -0.05340168 -0.07700798 -0.052426755 -0.0014891437 -0.015458087
-0.07807454 -0.0652088 -0.013018349 -0.012431614 -0.040768713 -0.06391336 -0.023367867 -0.056737356
-0.015599379 -0.038987007 -0.06207956 -0.06973249 -0.019925851 -0.06882312 -0.10135038 -0.015213204
-0.060305413 -0.05764189 -0.03724234 -0.02430592 -0.028913803 -0.05998083 -0.007607756 -0.023017922
-0.028673917 -0.035355315 -0.0230456 -0.058306288 -0.035949126 -0.0395367 -0.032837253 -0.047568474
-0.054216545 -0.03579435 -0.0745499 -0.03175181 -0.034504723 -0.08609969 -0.011154783 -0.012085277
-0.024357522 -0.056020923 -0.078227915 -0.07619733 -0.119186044 -0.035768505 -0.08762933 -0.011259724
-0.075156406 -0.045011654 -0.037291408 -0.04522526 -0.006231551 -0.027659595 -0.045434944 -0.094562106
-0.121988766 -0.06031829 -0.035032395 0.005695408 -0.03209627 -0.061076384 -0.020128123 -0.04341536
-0.08909021 -0.13176788 -0.01359982 -0.038185537 -0.07861554 -0.0719249 -0.06265815 -0.0731945

fc.weight f4 [3, 8192]
00000000: a451 923c ce20 863c 4bc3 09bc cf40 693c
00000010: 2807 05be 8bca ccbc 8d15 a4bd 639c 043d
00000020: a261 653c 25e7 03bd de9f a13c 5b23 2f3d
00000030: b9f9 39be d561 ba3d 6806 25bd beeb bb3c
00000040: d5ac 343d a69a cf3c 2d3a 003d fc34 afbb
00000050: c3fb 84bd 6a1a a93d 772d 60bd 0e8d ec3d
00000060: d500 e93c 48b5 213d 58bf 97bc 0429 aebc
00000070: 54b0 cd39 b38a c23d 0dfc 703d d2c5 1d3c
00000080: 276f b0bd 8e95 32bc 674c d93c df24 50bc
00000090: 47fa 4a3d 24c8 1fbd ab21 433c b4aa 9a3d
000000a0: 697b 3e3c 261c cf3c 4202 04bd 8e66 453d
000000b0: 5dcf 7ebc e2d6 1fbd 7434 9c3d 30ee 9ebd
000000c0: e86b 2c3d bb70 afbd 8427 03be 53b2 38be
000000d0: d277 22bd 6ef3 c3bc 6cd4 06bd df6f c2bd
000000e0: 59de 193b fe10 e13b 97b9 00bc 728a 003d
000000f0: 754c d93d 9ea2 87bc 8f0a f33d 2272 16bc
00000100: 4f22 a83c 3a34 6abc d7e0 cebc c146 89bd
00000110: 3a5f 15bd f8f7 c03b 04e7 87bc 18b0 e0bb
00000120: 0fed 0abd da17 55bb 6c06 12be d049 dfbd
00000130: 02e0 153d 18f1 1b3d 7e9e 653c b326 5e3b
00000140: 2a23 203e 9f91 44be 42d6 a8bd 9f1c 36bd
00000150: b18d 64bd 502b 213b 927f a7bd c9ec c8bd
00000160: 0295 ab3b 081a 853d 04ce 323d 1be7 ff3d
00000170: 17af 093d 8a4a e03c 281f 89bd 54e2 e0be
00000180: a42e 1ebc 9e3a 3abd 9260 be3d bfac 2f3c
00000190: 1220 68bc 8003 403d cb15 4d3d dbb1 ebbd
000001a0: 1e14 763d 6813 0f3e 056d 81bd 8a5e a03d
000001b0: 054e b83d e585 c13d a812 82bc f4c8 86bd
000001c0: c507 09bc ee20 433c aed8 a7bd 2f1a 67bd
000001d0: e827 f7bc 7376 d13c 1dee a03c 6c0e 823c
000001e0: f4f5 5e3d 6387 e53c ba59 c2bc f59e 4a3b
000001f0: bbee a83c 1310 bcbc decf 07bd ca9f 6fbc
00000200: ad17 383d c25b cebb 8bec 1bbc 083b 9f3c
00000210: 5de7 b03c 4c53 cdbd d5a8 2bbc 5fc3 d7b9
00000220: f8cf 99bd 9e1a 0cbd 93d0 153b a567 c5bd
00000230: 3279 04be 8b1a 04be 464f febd 5d55 60bc
00000240: b301 5bbc 9f34 d0bd 84bc 70bd b02f 86bd
00000250: 03c6 2dbd 26d2 76bd 5c33 9ebd 6a65 45bd
00000260: 9f01 03bd 0c50 a8bd fb0d a8bd 64ab 39bc
00000270: 81b1 30bc 1d6a a0bd 318b a7bd ba54 0dbd
00000280: 1aa8 093e 9ca4 55bd 8c89 4cbd e883 c0ba
00000290: 5193 5abc 444b 9fbd a598 f4bc 9fd8 f23c
000002a0: 9726 843d ee6f 533c 8541 91bd f5fd 81bd
000002b0: d5c4 b8bc 387d 83bd 153c 833c 1b43 02bd
000002c0: bebe e03c 5dbe 8bbc 60e5 82bd 2b1f 02be
000002d0: 87ec b8bd 18f4 acbc 62cd 403c 5aa2 edbb
000002e0: 9376 953d 63bf 38bd 43f4 92bd 818f 48bd
000002f0: c55a 233d 61f0 233d 7f51 5b3d ee2a 2a3d
00000300: 45b3 97bc 87f3 903c 8169 6dbd 2f31 00bd
00000310: df8b 71bd fe7a 1ebd 4c8e 8f3c b63f 7e3c
00000320: f886 073c e2a6 943c 9887 8a3c abc7 02bc
00000330: 5da1 a8bb 48aa e7bc caec a03b 32b7 863c
00000340: 0311 e93b c4e2 5a3d 1a43 6c3d 4f76 893c
00000350: 61f1 7fbc b43f 4cbc 2d27 203d bc78 0d3c
00000360: 3ddb a7bc b07c 9bbd 3095 ce3c 02ba f6bc
00000370: 7c30 abba 797a c4bc 9284 0a3d e333 15bd
00000380: 81d3 a83d e4d4 333c 5a98 dabc 7ac9 43bd
00000390: dd79 313d 2543 a9bc 57ff 52bc 13ee ebbb
000003a0: e212 813b 73c1 c1bd 8691 fc3a 29f3 e0bc
000003b0: 4736 993b 0328 91bd c23a fcbd 66a2 88bd
000003c0: 11f6 00bd a18c 86bd 6c36 d13b dc8f 143c
000003d0: e982 e03b a93f bc3d d65c 9d3d d2a5 133d
000003e0: ec0a e5bb 560d 5cbc 8529 b93d f730 853d
000003f0: 31bf a03c e51f c53c f8e3 b53c 3054 ce3b
0.017861195 0.016373064 -0.008408378 0.014236643 -0.12991011 -0.024998924 -0.08011923 0.032375704
0.014000328 -0.03220286 0.01972955 0.042758327 -0.18161668 0.09100691 -0.040289313 0.02293956
0.044110138 0.025342297 0.03130548 -0.0053468924 -0.06493332 0.08256991 -0.05473086 0.115503415
0.02844278 0.039479524 -0.018523857 -0.021259792 0.00039232022 0.09499111 0.058834124 0.009629684
-0.086149506 -0.010899914 0.02652569 -0.012704103 0.04955509 -0.03900923 0.011909883 0.0755209
0.011626103 0.025281977 -0.032228716 0.048193507 -0.015552369 -0.039023288 0.07627192 -0.077602744
0.042095095 -0.085664235 -0.12808043 -0.18036775 -0.03966505 -0.023919787 -0.032917425 -0.09493994
0.0023478477 0.0068684807 -0.007856748 0.03138203 0.10610286 -0.016557034 0.11867248 -0.009182485
0.020524172 -0.014294678 -0.025253696 -0.06702948 -0.03646777 0.005888935 -0.016589649 -0.0068569295
-0.033917483 -0.0032515437 -0.14260262 -0.109027505 0.036590584 0.03807172 0.014014838 0.0033897578
0.15638414 -0.19196175 -0.082439914 -0.04446089 -0.05579919 0.0024592467 -0.08178629 -0.09810788
0.005236269 0.06499106 0.043653503 0.12495252 0.033614244 0.027379293 -0.06695396 -0.43922675
-0.009654675 -0.045466058 0.09295763 0.010722338 -0.014167802 0.046878338 0.05006961 -0.115085326
0.06007778 0.13972247 -0.06319622 0.07830532 0.08999256 0.094493665 -0.015878037 -0.065812975
-0.008363669 0.0119097065 -0.08195625 -0.056421455 -0.030170396 0.025569176 0.019644791 0.015876018
0.054433778 0.028018659 -0.023724426 0.00309175 0.020621648 -0.022956884 -0.033157222 -0.014625499
0.044944454 -0.0062975595 -0.009516845 0.019437328 0.021594698 -0.10025653 -0.010477264 -0.00041153558
-0.0751037 -0.03420507 0.0022859916 -0.09638909 -0.12936857 -0.1290075 -0.12417464 -0.013692227
-0.013367104 -0.10166287 -0.058773533 -0.065520644 -0.042425167 -0.060259007 -0.0772464 -0.04819242
-0.031983968 -0.08218393 -0.082057916 -0.011332367 -0.010784508 -0.078327395 -0.081808455 -0.03450463
0.13443032 -0.052158937 -0.049935862 -0.0014687749 -0.013340787 -0.07778028 -0.029857943 0.029644309
0.06452673 0.012905104 -0.07092575 -0.063472666 -0.022554794 -0.06420368 0.01601986 -0.031802278
0.027434703 -0.017058546 -0.06391406 -0.12707202 -0.09029489 -0.021112487 0.011767717 -0.00725202
0.07298007 -0.045104396 -0.071754955 -0.04896498 0.039881486 0.040024165 0.053544518 0.041544847
-0.0185181 0.017694248 -0.057961944 -0.031296905 -0.058971282 -0.038691513 0.017523907 0.01551812
0.008271925 0.018145982 0.01691036 -0.007982175 -0.005146189 -0.028279439 0.00491104 0.016444776
0.0071126237 0.053438917 0.05768118 0.016780047 -0.015621514 -0.01246636 0.03909986 0.008634742
-0.020490283 -0.07592142 0.025217623 -0.030117992 -0.0013060714 -0.02398418 0.033817835 -0.036426436
0.08243466 0.01097605 -0.026683975 -0.047799565 0.04332911 -0.0206619 -0.012878261 -0.0072000115
0.0039390186 -0.09460726 0.0019269444 -0.027459698 0.00467566 -0.0708771 -0.12315895 -0.066716
-0.031484667 -0.065697916 0.0063846614 0.009067502 0.006851543 0.0919183 0.07683723 0.03604681
-0.0069898274 -0.013430914 0.09041122 0.0650348 0.019622417 0.02406306 0.02220343 0.006296657

fc.bias f4 [3]
00000000: de03 a03b ac07 4b3c 8464 acb9
0.0048832735 0.012391966 -0.00032881286
