Coffee_Inspection_Service/Models/ServiceModel/crossValidation_new.pth (torch_old, 470613 bytes, 8 tensors)

layer1.0.weight f4 [32, 1, 3, 3]
00000000: 9f64 c1be dad2 aebd 9d1f 26be 9715 39be
00000010: 8471 1e3e 49e4 373e 4af3 a93d 3bf8 1fbe
00000020: 3102 ad3d b9a5 4bbe f681 26be 1b23 ea3c
00000030: 726c 8fbe 8bcf 863d 2c5a 103e dd10 9e3e
00000040: 3813 893e f7d4 f6bd da5b 5a3e 6b42 ba3e
00000050: 6aa0 263f e016 033e 4e6a 88bc 320d c1ba
00000060: cfa3 1b3f 90bc 2a3f 69e7 b23e d018 82bd
00000070: 91c7 86be 81f3 18be 7941 bebd 7207 623d
00000080: 06b8 093c 50ef a33e bccf d7bd d6e5 963e
00000090: 58bf 543e e097 b53d 14ed ec3c 4cb2 c1bd
000000a0: fb35 98be fbf7 b0bd e831 1a3e 3578 883e
000000b0: b897 adbe 3543 91be 3f42 15bb ea20 ffbd
000000c0: d59e 86bd 7c16 ee3c ca24 be3e 39f8 54be
000000d0: 8e11 b6bd b1fa a23e 5047 373e cee6 7d3e
000000e0: 582f 96be f98d 063e 550f d13e 1be8 693d
000000f0: 8712 ea3d f284 5bbe 1d6e 3ebe 1217 3abe
00000100: 6ceb 353e a803 a73e 3657 f53d 245c 93be
00000110: 943a b2bd 63d1 8c3d 28c5 5fbd 0c37 16be
00000120: 7201 1fbe ce66 a3be bb9a 3ebe 8e3c bf3e
00000130: 6768 a1be 06f0 c4bd a92e 5bbd 6aa4 1fbe
00000140: 49b1 163e a907 90be f818 403d d9e2 5e3e
00000150: 1765 9f3e 5e5c cabe 6bf4 773d fd79 cc3e
00000160: 5fc5 9a3e 37ab 8f3e 1f31 a9be 33a2 a0be
00000170: 6f32 763e 84c2 8d3e 23d3 bf3e 102f 1e3e
00000180: 4095 833e d6a2 a23e 5357 823e ddd3 2c3e
00000190: 9755 cb3c ac00 6fbe f135 a3bd 1dfa 59bd
000001a0: e962 3c3e 8ff7 253e 9d47 9fbe 70ed 65be
000001b0: efd5 86be 103f 173e 9db1 aa3e c576 c3bd
000001c0: b36b e0bd e273 583e c8cb 7ebe 421e 20be
000001d0: 23e1 11be 67ee ec3d 099f f83d e9f4 a9be
000001e0: b4eb 4abe ae3c 263e 187b ae3e ff1f 0b3e
000001f0: 6b26 b03e 2372 1abe ff8a 65be 18e3 9b3e
00000200: c97d 573e 93ad 673e 67ea 13be 7ab7 eb3d
00000210: 59dc b8be d4f4 33be 3478 a23d 2c94 4e3e
00000220: 6d7a 1bbc 2524 423e dd58 6e3f e275 c43d
00000230: ee7b b53e 7adb 443e 9484 59be fb65 593e
00000240: fd3b 53be 8745 9cbe 059b 733d 34f2 7abe
00000250: 21ac 82be 5935 e6ba 3033 15be 0d59 d7bd
00000260: aaf5 bd3e 9099 0ebe 3f1e 54be c87d c33d
00000270: bb18 ffbd b12a 96be 6266 04bd 16b0 1b3b
00000280: b956 88bd 7a0e b73e 516d 283e f1c2 f8bd
00000290: 90d9 1a3d 4159 583e b8c3 9abd 794a 99be
000002a0: 24b5 0f3e fc9f a1bd 2bd8 8e3e dca7 083e
000002b0: 4cbf 5abc bd07 d93e 7468 723e ddc7 923e
000002c0: aecc 103e a8af 1a3d bde1 133d 1726 5abe
000002d0: 5108 133e 9b59 8cbe 2f23 86be 279a a4be
000002e0: c2fb 573e c1c9 9b3e f9e9 edbd 22a4 823e
000002f0: a4d8 a63e 222c e13e 17f4 86be b13c 0dbe
00000300: 66eb f33c 4323 2d3e dcec 3f3e b03f 8b3d
00000310: 4283 b2be 3a16 d03c a3bd 83be 4572 fd3d
00000320: 3bdf 7b3c db10 573e ef8b 83bd 741d 843d
00000330: f551 993e a5bf 4e3e f80d b7be 22bd 68be
00000340: 8b17 4a3e 2f0d 2cbe e1d7 b2bd b8fc 9b3e
00000350: 6c38 92be d107 f03d bc16 75be d201 88bd
00000360: cd77 943e 6d1e 90be 4a5b b8bd 4c34 b23d
00000370: 23f5 52be c93c 8e3e ad8d 3cbe c22f 593e
00000380: e717 76be e921 6a3e 0595 603e 54bd 103d
00000390: f3e2 bcbd 9722 1d3d d24b b7be f2de 3ebe
000003a0: aecf bebe 124e 18be 528b 86be 7f75 b03e
000003b0: 1441 b03d 777b 91bd 06e2 9abe 3a30 03be
000003c0: 87f1 903c 0679 f4bd 039d 0f3e bcf2 52be
000003d0: 03e7 32bc 34d2 7a3e afee 10be 13db 093d
000003e0: 59a9 16be b95c ad3e d3f4 39be 4a03 eebd
000003f0: 1ed3 9f3e d32e a33e 264a 5e3d f018 443d
-0.3777208 -0.085363105 -0.16222997 -0.18074642 0.1547299 0.17958178 0.08298357 -0.15622036
0.084476836 -0.19887437 -0.16260514 0.028581193 -0.28012425 0.065825544 0.14096898 0.3087224
0.26772475 -0.120523386 0.21324101 0.36378798 0.6508852 0.12801695 -0.016652253 -0.0014728664
0.6079683 0.66693974 0.34942177 -0.06352389 -0.26324132 -0.1493664 -0.09289832 0.05518288
0.008405691 0.32018518 -0.10537669 0.29472226 0.20776117 0.088668585 0.028921641 -0.094578356
-0.29728684 -0.086410485 0.150581 0.2665421 -0.33904815 -0.28371587 -0.0022775081 -0.1245745
-0.065732636 0.029063456 0.37137443 -0.20797814 -0.08890067 0.31831887 0.17898297 0.24795076
-0.29332995 0.13140096 0.4083201 0.05710612 0.11429315 -0.21437433 -0.18596692 -0.18172863
0.17765588 0.32619977 0.11979525 -0.28781235 -0.08702579 0.06875875 -0.054631382 -0.14669436
-0.15527895 -0.3191437 -0.18613712 0.37350887 -0.31524965 -0.09616093 -0.053511295 -0.15590063
0.14716066 -0.28130844 0.046898812 0.21766223 0.31131813 -0.39523596 0.06053583 0.3993682
0.30228707 0.28060314 -0.3304529 -0.31373748 0.24042676 0.27687466 0.37465772 0.1544764
0.25699806 0.3176486 0.25457248 0.16877694 0.024821086 -0.233401 -0.07969273 -0.053217042
0.18397106 0.16207717 -0.31109324 -0.22453856 -0.26335093 0.1477015 0.33338633 -0.09544138
-0.10958042 0.21137956 -0.24882424 -0.15636542 -0.14246039 0.11568909 0.121397085 -0.33194664
-0.19816476 0.16234085 0.34078288 0.13586424 0.3440431 -0.15082602 -0.22416304 0.30446696
0.21044077 0.22624807 -0.14444886 0.11509605 -0.36105612 -0.17573863 0.07933083 0.2017371
-0.009489638 0.189591 0.93104345 0.09592797 0.35446113 0.19224349 -0.21241981 0.21230309
-0.20628352 -0.30521795 0.05947401 -0.24506456 -0.2552195 -0.0017563506 -0.14570308 -0.10515032
0.3710149 -0.13925767 -0.20714663 0.09545475 -0.12455889 -0.29329446 -0.032324202 0.0023756078
-0.06657166 0.35753232 0.16447951 -0.12146557 0.03780514 0.21127798 -0.07556862 -0.2993963
0.14033943 -0.07891843 0.27899298 0.13345283 -0.013351273 0.42388716 0.23672658 0.2866811
0.14140579 0.037765175 0.036103953 -0.21303593 0.14358641 -0.27412114 -0.26198718 -0.3214886
0.21092132 0.30427364 -0.11616892 0.25515848 0.3258716 0.43978983 -0.263581 -0.13792683
0.029775333 0.16907983 0.18742698 0.06799257 -0.34865767 0.025401223 -0.2573062 0.12375311
0.0153730465 0.21002524 -0.064231746 0.0645093 0.2994534 0.20190294 -0.35752845 -0.22728398
0.19735543 -0.16801904 -0.08732582 0.30466247 -0.2855867 0.11720241 -0.23934454 -0.06640972
0.2899765 -0.28148213 -0.09001787 0.08701381 -0.20601325 0.2778075 -0.1841342 0.21209624
-0.24032556 0.22864498 0.21931846 0.035336807 -0.09222975 0.038363066 -0.35800034 -0.18639734
-0.37267822 -0.14873531 -0.26278168 0.34464642 0.08606163 -0.07103627 -0.30250567 -0.12811366
0.017693294 -0.11937146 0.14024739 -0.20600408 -0.010919335 0.24494249 -0.1415355 0.03365619
-0.14713039 0.33859804 -0.181598 -0.11621721 0.31215757 0.31871662 0.054269932 0.047875345

layer1.0.bias f4 [32]
00000000: 8c88 d53d 9868 95bd d9b2 70bd d583 813e
00000010: b7cc 99be 64f9 1f3e cf91 7e3e 581a 423e
00000020: 0ad0 14be 1936 50be a113 283d 75dd 503e
00000030: 68c6 8d3e dfc3 54be e72b 74be 9404 9b3d
00000040: 136b 64be 7cd6 46be 7720 db3c f214 64be
00000050: a9cb d83d 2b04 c9bd 62b3 bdbc cca8 0abe
00000060: 3b23 3f3e 4619 513e abb0 3bbe c909 6e3e
00000070: 9140 5fbe ae1d 2fbe c0fc 663e 5f76 623e
0.10426435 -0.0729534 -0.058764312 0.25295892 -0.30038998 0.15622479 0.24860309 0.18955362
-0.14532486 -0.20333137 0.041034345 0.20396979 0.27690434 -0.20777844 -0.23844872 0.075692326
-0.2230647 -0.19417757 0.026748879 -0.22273615 0.1058572 -0.09815248 -0.023156825 -0.13540953
0.18665783 0.20419797 -0.18329112 0.2324592 -0.21801974 -0.17101166 0.22557354 0.22115467

layer2.0.weight f4 [64, 32, 3, 3]
00000000: fd3e 8cbd d976 81bd 7f46 71bd 3fa6 403d
00000010: dd1a 1bbd ce4f 133d 32f1 d23c 4703 b5bc
00000020: 3d18 cc3c 30fb c5bd 993e babd b665 d1bd
00000030: a303 ecbd ce40 1ebe 4495 b9bd f62f fc3c
00000040: fd8a 6cbc 4fa0 80bd b827 67bd dd5a c4bc
00000050: b361 df3c a54b 69bd ca6a 45bd 31fe c4ba
00000060: 02e2 e33c 0e3f 163d cc44 083c 9404 0fbe
00000070: c063 5bbe b18b 14be 0cc7 e2bd 09aa 20be
00000080: 1ca1 eebd 9b3f 3abd cc43 98bd 17e9 37bd
00000090: 2639 093e c25f ae3d e289 b83a 71f6 033e
000000a0: 3064 af3d 9a52 243c c37f f73d 8bd4 ff3d
000000b0: 9182 5a3d b41e 8ebd cd41 56bd 9310 aabd
000000c0: 7c2f b0bd d882 193b f021 353d b311 f03c
000000d0: d65b de3d 2a39 0a3e c2ae 53bc ff25 653c
000000e0: f521 1dbc d12d 12bd 7bff 9bbd 7460 073b
000000f0: e498 76bd 1f18 87bd 488f 0cbd 5e03 a8bd
00000100: a9cc 3bbb e889 a03c fd87 fdbc 477a d73c
00000110: cbb0 e13c 4ad6 543c ea10 0d3d 63d0 003c
00000120: 6b31 403c 7f16 55b9 7b40 b7bc f6dc cd3c
00000130: f1fc 923c f10a 173d 50b1 9c3c 5d70 513d
00000140: a6a3 873c 4352 073b 3dc7 183d a765 2a3c
00000150: 6cb6 74bd ef17 30bc a9f7 73bd aea5 babd
00000160: ff1a 2ebd 78aa 2a3d 566d 98bd 48ba f63c
00000170: 0d0d c53b ec3b 913c de58 d93c a642 97bd
00000180: 5889 5cbd daca 95bb 3c19 793c e33f babd
00000190: 8bd5 29bc de8c 20bc cca4 c1ba a1fc 9dbd
000001a0: 4188 bdbd a90d 963c 9a90 e0bc 425e fdbc
000001b0: bb6c a1bd eefd 72bd 8078 a6bd cea1 3abd
000001c0: 3b99 f9bc fbef b1bc ea03 e93c 268a 363d
000001d0: 653c a13a 89bf 293d 39fb 98bc 043a 05bc
000001e0: 7059 e5bb a007 26bd 1339 6a3d f323 91bd
000001f0: 344a 8db9 501c 43bd 2900 44bd 85ee 3abd
00000200: db84 d4bb 8637 7cbc 4448 e5bd 2c11 a33c
00000210: 19a0 88bd ed11 51be 88d6 c0bd 84d5 9abd
00000220: e539 9cbd 4c93 04bc ec5f 15bd 4a2a 48bd
00000230: c66b dcbc 4c52 af3c 0aed 92bd 931c aebd
00000240: 2bbf 70bc a379 813c c6b8 553d b718 ad3c
00000250: cdab f4bc 552b 303c 45f6 2e3d bf05 c939
00000260: 9387 97bc dab2 40ba 60f2 f33c d219 41bd
00000270: 7284 39bc c0d9 d6bb 2adb 9abc 0664 23bd
00000280: 4e1b 503d 77bf 90bc d0a7 05ba 2fbd 63bd
00000290: c88c e2bc 82da a93c 35dd 8b3b 19b7 a2bb
000002a0: 2936 afbc 00db 6cbd 3d16 b4bd 6afe 70bd
000002b0: 35a8 2c3d 0c7b 26bd 3b49 583d 7ce3 85bd
000002c0: ebb9 08bc e0e1 923c 062c 313d 6ef9 b0bc
000002d0: 3d70 8fbc d6de a2bd 5d8f 453d d55e 0abc
000002e0: 7c27 dbbc e612 693d 102e df3c 5c43 c83b
000002f0: e665 313d 3c0b 14bd 6f1a 8038 4c33 433d
00000300: 7e80 2b3d 9097 013d d685 443d 8f8d fabb
00000310: 0f62 20bd 2288 1bbb 99c8 543c c55d c5bc
00000320: 1584 693c 97c6 8abb b74a 57bd cf2a 4bbd
00000330: 1d5d 8fbd 2fff 983c cfcc 2cbc 3362 e2b9
00000340: 0777 f53c 065e a43c 5a07 52bd f2e6 563c
00000350: 5b1a 66bc 884a 9d3d c550 783c 9798 40bd
00000360: bf70 dbbd fee8 f6bc ffeb 84bd 9f2e 21bd
00000370: 2a07 53bb c884 9ebd 721d 42bd c672 24bd
00000380: c158 aebd 8f00 ad3c 6c84 143c 94c6 5c3c
00000390: 778e 653c 2a44 babc 139f 9bbd 947e 853b
000003a0: bdd1 4dbd 4b15 b5bd 88ee 803c 441c 8f3c
000003b0: 401a 273d 7a14 c8bb 23b6 beba df3f 273d
000003c0: c306 933d c17f b4bc cbe3 acb9 f4f8 48bc
000003d0: 2ef6 8abd d9e5 a4bc 5296 d53c 04ea b5bd
000003e0: 4ee0 c43b 06e4 5fbd 1942 8fbd a8f6 76bc
000003f0: 1f2f e73d aab9 153e f462 003e b443 e73d
-0.068479516 -0.063214965 -0.05890512 0.047033545 -0.037867416 0.03596478 0.025749777 -0.02209629
0.024913901 -0.09667051 -0.09093971 -0.10224478 -0.11524131 -0.15454409 -0.09061673 0.030784588
-0.014437434 -0.062805764 -0.056434363 -0.023969108 0.027268266 -0.056956906 -0.048197545 -0.0015029368
0.02781773 0.036681227 0.008317184 -0.1396659 -0.2142477 -0.14506413 -0.110731214 -0.15689863
-0.11651823 -0.045470815 -0.07434806 -0.044900026 0.13400707 0.08514358 0.0014079178 0.12886979
0.08564031 0.010029459 0.120849155 0.12491711 0.053347174 -0.0693945 -0.052308846 -0.083039425
-0.08602807 0.0023423936 0.04422182 0.029305315 0.1085736 0.13498369 -0.0129200835 0.01398611
-0.0095906155 -0.035688225 -0.076170884 0.0020656856 -0.0602044 -0.065963976 -0.03431633 -0.08203767
-0.0028655923 0.019597009 -0.030948633 0.026303424 0.027550122 0.012990544 0.03443996 0.007862183
0.011730532 -0.00020321643 -0.022369614 0.025129776 0.017942877 0.03687567 0.019127518 0.05113255
0.016557526 0.0020648397 0.037299383 0.010400212 -0.059744284 -0.010747894 -0.05956236 -0.09113632
-0.042506214 0.041666478 -0.07442729 0.030118123 0.0060135187 0.017728768 0.026531633 -0.07385759
-0.05384192 -0.004571301 0.01520377 -0.09094217 -0.010365854 -0.00979921 -0.0014773845 -0.07714201
-0.09254504 0.01831706 -0.027412701 -0.030928735 -0.07882067 -0.059324197 -0.08128452 -0.045564465
-0.030468574 -0.021720877 0.02844425 0.044565342 0.0012301324 0.041442428 -0.01867448 -0.008131508
-0.006999187 -0.040534616 0.057183336 -0.07086935 -0.000269489 -0.047634423 -0.047851715 -0.045637626
-0.006485564 -0.015394097 -0.11195424 0.01990565 -0.06671161 -0.20416994 -0.094159186 -0.07560256
-0.0762823 -0.008091759 -0.03646843 -0.048868455 -0.02690686 0.021401547 -0.07174118 -0.08501544
-0.0146940155 0.015805071 0.052178167 0.021129949 -0.029867077 0.010752519 0.04271533 0.0003834199
-0.018497264 -0.000735087 0.02977866 -0.047143765 -0.011323081 -0.0065567195 -0.018903334 -0.03989031
0.05080729 -0.017669423 -0.00050985534 -0.05560034 -0.02765502 0.020734075 0.0042683133 -0.0049656746
-0.02138813 -0.057826042 -0.08793304 -0.05883638 0.042152602 -0.04064469 0.052804213 -0.0653753
-0.008345108 0.017929971 0.043254875 -0.021603312 -0.017509574 -0.07952659 0.048232425 -0.008445461
-0.026752226 0.05690279 0.027243644 0.0061115455 0.04331007 -0.036143526 6.108439e-05 0.047656342
0.041870587 0.031638682 0.0479792 -0.0076462696 -0.039156016 -0.0023732265 0.012987279 -0.024092564
0.014252682 -0.0042350995 -0.052561488 -0.049601372 -0.07000182 0.018676369 -0.010546877 -0.00043179243
0.029963983 0.020064365 -0.051276542 0.013116585 -0.01404437 0.07680231 0.015155976 -0.04702052
-0.10714864 -0.030140396 -0.06490325 -0.039351102 -0.0032200315 -0.0774017 -0.047391362 -0.04014852
-0.08513022 0.02111843 0.009064775 0.013475079 0.014011017 -0.022737581 -0.075987004 0.004073927
-0.05024885 -0.08841952 0.01573874 0.017469533 0.04079652 -0.0061059566 -0.001455013 0.040832397
0.07179024 -0.022033574 -0.00032976115 -0.012266386 -0.06785236 -0.020129131 0.026072655 -0.088825256
0.0060081845 -0.05466082 -0.06995029 -0.015073456 0.112882845 0.14621606 0.12537748 0.1129221

layer2.0.bias f4 [64]
00000000: 784e b3bc 2ed3 1abd dd1a e7bc 125d b63a
00000010: 2bc6 52bd b7c7 3cbd 69e7 26bd 6121 06bd
00000020: bd18 d3bb c444 89bc 9dd3 b1bc 79b2 2cbd
00000030: ce1f 10bc d6bc 31bd e385 9ebd 7b3e 3b3c
00000040: 3fab a5bd 5e8d a6bd d432 cebc a8ab 3f3d
00000050: 6477 3f3d 24ed 8abd 17bb 973d 4a0b 96bd
00000060: 7cf4 55bd d454 3a3c c1f4 32bd 889b 0d3b
00000070: 2103 efbc b851 443d 6432 0c3b 75b2 a4bd
00000080: 0a77 fd3c 9f04 a7bd 544c 6fbd a506 823b
00000090: 1c71 42bd af31 ebbd 0825 33bc e7be 7c3d
000000a0: 101c abbd 81cf 77bc a20b a43d 1279 833b
000000b0: d929 f4bc 5a0d 363d 4243 03bd 0b61 9b3c
000000c0: 4589 66bc 60a8 313b 68f0 1fbd 54bd 0e3c
000000d0: 2530 95bd 8197 263b 6bd1 0fbd 2722 c1bc
000000e0: 415a c2bd 93ee 4ebd 8c8f babc 9f9c bb3a
000000f0: b2d5 f1bc 1de5 463c 238e a03b 3d73 a9bb
-0.021888003 -0.037799053 -0.028211052 0.0013913235 -0.05145852 -0.0460889 -0.040748034 -0.032746676
-0.006442158 -0.016756423 -0.02170735 -0.042162392 -0.008796645 -0.04339298 -0.077403806 0.011428471
-0.08089303 -0.081324324 -0.025170721 0.046794564 0.04674472 -0.06783512 0.074087314 -0.07326372
-0.05223511 0.011372764 -0.043690447 0.0021607596 -0.029176297 0.047929496 0.002139234 -0.080418505
0.030940551 -0.08155178 -0.0584224 0.0039680772 -0.04747115 -0.11484086 -0.010934122 0.061705496
-0.08354962 -0.015125156 0.08010031 0.0040122354 -0.02980511 0.044446327 -0.032046564 0.018967172
-0.014070814 0.0027108416 -0.03904763 0.0087121315 -0.072845735 0.0025419893 -0.035111826 -0.023575855
-0.09489871 -0.05052049 -0.022773527 0.0014313644 -0.029520843 0.012139586 0.0048997565 -0.005171208

layer3.0.weight f4 [128, 64, 3, 3]
00000000: 9f01 5f3d ee42 003c 6202 953d 364b a2bc
00000010: 11b9 403d 8b87 503d b242 ea3c ab8c 57bc
00000020: 9fa3 903b a5ac 69bc 30dd 79bd 9e54 4e3d
00000030: 7cbd 323d e200 6d3c c2b2 fe3b 1451 ad3d
00000040: ecaa 3f3c 8719 de3c 1564 edbd 42be b7bc
00000050: 1723 183d 2aa6 b4bd 27b0 c0bd 8e19 003c
00000060: 4eb5 edbb f61e 5d3c f1cf 8c3d 6844 483d
00000070: 9d15 3bbd f739 c6ba c0ad a43d 4224 df3d
00000080: 5742 4a3d 5820 283b 0924 b3bd f2ec 08bd
00000090: b34e 913c f91c 1bbd fc8f f83b 2d23 03bd
000000a0: 5b8f c83c c0ae 50bc 0e15 183d 4506 bc3c
000000b0: 198b 9a3d dc53 cc3d f907 e4bc a700 fb3b
000000c0: c6dc 813d 03c2 c53c 22a6 e6bc c51f 903d
000000d0: 7945 ccbc 7913 ef3c 0b25 9dbc a79a 94bc
000000e0: e905 8dbc 0721 ff3d 4fee ce3c 9a76 b2bd
000000f0: f08e 88bb f501 8fbd 2169 223d bb98 3e3d
00000100: d87b 403d acc1 83bd f618 cf3d a72e 23bd
00000110: eb1b c8bc 0e16 973d d04e 81bc a80b 34bc
00000120: ec27 03bd 113f 913d f6cc 033d d7be 19be
00000130: 8897 a43d 17eb 7dbc 6c71 003d 1f54 b1bb
00000140: 51cc 1bbe fde2 383b 91e6 3b3b 374d 13bd
00000150: 1088 e43b c13a d33c 2f2a 1d3d 4937 4ebd
00000160: b784 13be 8228 11be cbaa 4dbd 293a 9f3d
00000170: 988a 7c3d bf11 913d 186f 603c a1ff 05bc
00000180: c342 9f3c 61da 76bd a21e e23c d03e 6e3c
00000190: 4432 66bb 7061 b93d 02db 61bc ef36 853c
000001a0: e1cb b8bc 8287 7e3d 5615 9c3d 478e 81bd
000001b0: b648 263c 1e85 cabd 4765 c9bd dc0e 393d
000001c0: f76b 9bbc 8e51 813d 6ed4 b2bc d357 fd3d
000001d0: 3184 c53d f5fd a2bd 5ec6 ebbc 503b 23bc
000001e0: 1b4b 9f3d b0f2 c5bc ac5a e3bd ba59 8e3d
000001f0: 1a2a 903c 231e adbb efaa c13d 9e0b 41bd
00000200: 5c9b 46bb 7842 91bd 47a5 36bd 6138 5bbd
00000210: afb9 4f3d 11a2 02bd 5c43 01bc abba b53d
00000220: d586 48bc b67f 69bd ba2a 223c 945b b7bd
00000230: 2bb7 893c c1f5 22bd b1c3 d6bc 0684 3f3e
00000240: 683f a1bb 5059 90bd d48f aa3c e40a e93b
00000250: 171a a5bd cb94 babc 0760 71bd 4c64 4dbd
00000260: d6f3 213c cc28 273c 06d6 5dbb fbd5 1b3d
00000270: ae1e 19bc 681e bebc 772e 9a3c 057a 9fbc
00000280: 651b 53bd 0884 62bd 4f67 6b3c 045e 823d
00000290: 8c90 983d c36f ec3a 4fa2 4cbd 5ef3 12bd
000002a0: f537 79bc 1486 5fbd 27c6 e93d 238f 77bc
000002b0: 3976 0a3d 6357 9abb fa9b ef3d 0b3b 45bb
000002c0: f819 993d 2f16 913d def1 803d 7c03 01bd
000002d0: daa6 653d f258 9fbc c0ef d63b ea2d b73d
000002e0: 1a32 76bd 3dee 183d 5d66 63bd 6cf9 af3d
000002f0: 58f6 acbb 0fca c7bc 39e3 11be 1f70 ae3d
00000300: 65fd d5bd 91cd 8f3b 924d 92bc 89ab 2cbd
00000310: e3f4 8bbd 32f6 893d 894a c3bd e65e 92bd
00000320: ee22 32bc 0bf0 48bd c242 66bd 54ac 8dbd
00000330: b3d7 c4bc 735e 6dbd e55f 6bbd e1d3 95bb
00000340: 19f8 c3bd 1a92 70bd ea09 68bd ecd9 debc
00000350: c570 4abd b34f f4bc 46df 303c c3e7 0d3e
00000360: 1b57 b2bd 4cc6 77bc 9b8a f9bc 276d 663b
00000370: cb6a 163d 1ce3 c0bc e1e9 9abc 3be6 4ebd
00000380: 31ab 513e 83eb 43bd c92b 233c ea4b c3bb
00000390: 063d 9ebc 475e 83bd 99bc 9cbc 1269 6cbc
000003a0: c6f4 26bd 223c b73c b4a9 efbc 1194 71bc
000003b0: 10e3 85bd 380d b9bc fe30 acbc 642a 583d
000003c0: c9b2 953d 5c0f debc b9f7 ed3c 01d8 023e
000003d0: 8a25 573d 2544 70bc c4db 383c a5e1 bdbc
000003e0: 2434 7cbd 1b43 d73d 307b ec3d 0ae5 493d
000003f0: 22e7 df3d b251 453c 94c2 d13c 739a a33c
0.054444905 0.007828457 0.07275845 -0.019811254 0.047051493 0.050910514 0.028596256 -0.013156096
0.0044140364 -0.014262353 -0.061001956 0.050373666 0.043637738 0.0144655425 0.0077727744 0.0846273
0.011698466 0.027111782 -0.11591355 -0.02242959 0.03714284 -0.08820756 -0.094085984 0.007818593
-0.007254279 0.013496151 0.06875599 0.048893362 -0.04567491 -0.0015123476 0.08040953 0.108955875
0.049379673 0.0025654044 -0.087471075 -0.033429094 0.017737722 -0.037869427 0.0075855237 -0.032015968
0.02448242 -0.012736976 0.037129454 0.022952208 0.07546062 0.099769324 -0.027835833 0.00765999
0.06340937 0.024140364 -0.02815539 0.070373096 -0.02493547 0.02918409 -0.019182703 -0.01814015
-0.017214732 0.12457471 0.025260119 -0.08714028 -0.00416743 -0.06982795 0.03965104 0.046532374
0.046993107 -0.06433424 0.10112183 -0.039839413 -0.024427375 0.073772535 -0.015784651 -0.010989107
-0.032020494 0.07092107 0.032177888 -0.15014206 0.08036715 -0.015497944 0.031358168 -0.0054116393
-0.1521466 0.0028211467 0.0028671364 -0.03596231 0.0069742277 0.025784852 0.038370308 -0.050345693
-0.14406095 -0.14175609 -0.05021171 0.07774765 0.06165561 0.07083463 0.013698362 -0.008178622
0.019441014 -0.060266856 0.027602497 0.014541343 -0.0035125175 0.09051788 -0.013785126 0.016261546
-0.022558155 0.06214095 0.07621257 -0.063259654 0.010149172 -0.09888671 -0.0983377 0.045180187
-0.01897238 0.063143834 -0.02182981 0.12370267 0.09644354 -0.07958595 -0.028781112 -0.009962872
0.07777997 -0.024163574 -0.11101279 0.06950708 0.0175982 -0.0052831336 0.09456431 -0.04713022
-0.0030305004 -0.07092756 -0.044591215 -0.053520564 0.05071419 -0.03189284 -0.007889595 0.08873495
-0.012239178 -0.05700656 0.009897882 -0.08953014 0.016810974 -0.03978515 -0.02621636 0.18702707
-0.0049208887 -0.07048285 0.020820536 0.007111894 -0.08061617 -0.022776028 -0.05892947 -0.05014448
0.009884795 0.010202598 -0.0033849492 0.038045865 -0.0093456935 -0.023207858 0.018820984 -0.019467363
-0.051539797 -0.055301696 0.014367892 0.06365588 0.07449445 0.0018038679 -0.049959477 -0.035876624
-0.015211095 -0.054571226 0.11414748 -0.01510981 0.033804152 -0.0047101243 0.11699672 -0.0030095007
0.07475656 0.07084309 0.062961325 -0.031497464 0.056067325 -0.019451592 0.006559342 0.08944304
-0.060106374 0.037336577 -0.055517543 0.08592495 -0.00527839 -0.024388341 -0.14246835 0.08517479
-0.10448722 0.004388519 -0.017859254 -0.042155776 -0.06833818 0.06736411 -0.09535701 -0.07147007
-0.010872586 -0.049057048 -0.05621601 -0.069176346 -0.024028635 -0.057951402 -0.0574645 -0.004572377
-0.09568805 -0.058733083 -0.05665008 -0.027203523 -0.04942395 -0.02982316 0.01079542 0.13857941
-0.0870802 -0.015122961 -0.0304616 0.0035160275 0.03672294 -0.023545794 -0.01891035 -0.050512534
0.2047546 -0.047832023 0.00995917 -0.0059599774 -0.019316208 -0.06414466 -0.0191329 -0.014429348
-0.040760778 0.02236754 -0.029255725 -0.014744774 -0.06537449 -0.022589311 -0.021019455 0.0527748
0.07309491 -0.027106933 0.029048787 0.12777711 0.052526034 -0.014664684 0.011282865 -0.023178885
-0.061573163 0.10510846 0.11546934 0.049290694 0.10932757 0.012043403 0.025605477 0.019971108

layer3.0.bias f4 [128]
00000000: 91f6 debc 5d81 f2bb e5dd 96bd c129 fbbb
00000010: 9c70 c7bb 45a6 c8bc 4af2 8cbd 51d9 76bd
00000020: 8d11 bcbc 2034 8abd 8728 87bc 63dc a4bc
00000030: e189 40bd 60bb 60bd 02d9 5fbd db26 303c
00000040: a9a8 46bd 6707 0dbc 3734 64bc cc7a 0839
00000050: 3572 36bd ac32 98bd 9b69 01bd 0b13 51bd
00000060: d312 60bd e5b0 f1bc ff97 4fbd 2f08 f2bc
00000070: 8637 8abd de5b 08bd edb9 dabb 5436 7ebd
00000080: e249 53bd c4e6 9fbd 1d76 fcbc 13af 35bd
00000090: 42aa 9cbc 4946 34bd 969e c7bc ae6b 0ebd
000000a0: b3e3 44bd aa8d 83bd 1582 c7bd 12c0 49bb
000000b0: 3a7c 6abb e59c 82bd 8dc7 92bd ab7d e7bb
000000c0: ac00 25bd 4c1e a4bd 950e 2fbc 683d 1abd
000000d0: 09f0 7abd 74f6 0dbd 908d 4a3c 441d 9dbb
000000e0: 4a43 71bd 6fde 63bd e917 19bb 74b4 b8bc
000000f0: 8791 0dbd 7571 3ebd 2cc2 94bc b876 4dbd
00000100: b81b b3bc 3f46 09bd 9a1a 4fbd 9834 7fbd
00000110: 7c03 adbc 57e4 63bd 3b5b b2bd 7eb2 5d3b
00000120: 029f 53bd 1a67 75bd 476a f9bc ccff c7bd
00000130: 1242 e0bc a6f4 87bd d60b 28bc 2aef 15bd
00000140: 2d66 47bd 7f08 f4bc eb32 f7bc 3a08 84bd
00000150: 21a3 8abc e1d9 28bd 1708 34bd 5318 5abd
00000160: b82b 52bd 5fb9 18bd 493d 56bd c78c 24bb
00000170: bfbe 1abd c883 a7bd 7f8a 10bb a568 78bd
00000180: 24ea f1bc 0036 04bd 013b 50bd 3b4e 94bd
00000190: 2d4e c3bd 78e0 0dbd 5dcf 85bd d5e1 16bc
000001a0: 10c8 89bd 1aa8 39bd dbad 2dbd c8b7 cabd
000001b0: daa5 b9bc e413 0fbd d852 c7bc c8b5 91bd
000001c0: 7ba9 9bbd 5231 0a3c 13e8 2fbd 1e66 0c3c
000001d0: 335a e3bc 3de8 74bd ca48 b3bc f548 4cbd
000001e0: 9861 81bd d8c3 a4bd 8048 1ebd 56d5 5abd
000001f0: e489 98bd a192 24bd da2f 2ebd 2f5a c8bd
-0.027217181 -0.007400675 -0.07366542 -0.0076648896 -0.006086422 -0.024493346 -0.068821505 -0.060265843
-0.022957588 -0.06748223 -0.016498817 -0.02012462 -0.04700649 -0.054866195 -0.054650314 0.010751451
-0.04850069 -0.008607722 -0.013928465 0.00013015716 -0.04454251 -0.0743154 -0.031594854 -0.05104355
-0.054705452 -0.029503295 -0.050682064 -0.029544918 -0.067488715 -0.033290736 -0.006674996 -0.06206353
-0.051584132 -0.07807687 -0.03081804 -0.044356417 -0.019124154 -0.04401234 -0.024367612 -0.03477066
-0.048068713 -0.06423505 -0.09741608 -0.003078465 -0.0035779611 -0.063775815 -0.071669675 -0.0070645413
-0.040283844 -0.08013591 -0.010684629 -0.037656218 -0.06126407 -0.034658864 0.012362853 -0.0047947485
-0.058902062 -0.05563205 -0.0023360199 -0.022546984 -0.034562614 -0.04649492 -0.018158995 -0.050162047
-0.021863803 -0.033514258 -0.05056248 -0.062306017 -0.021119826 -0.055637684 -0.08708807 0.0033828313
-0.051665314 -0.05991278 -0.030446185 -0.09765586 -0.027375255 -0.0663846 -0.010256728 -0.036605038
-0.048681427 -0.029789208 -0.030175647 -0.064468816 -0.016923489 -0.04122341 -0.043953028 -0.053245854
-0.051311225 -0.03728616 -0.05230454 -0.0025108324 -0.037779566 -0.08179432 -0.0022055206 -0.06064667
-0.029530592 -0.03227806 -0.05083752 -0.07241484 -0.09536395 -0.0346379 -0.06533692 -0.009209116
-0.06727612 -0.04532633 -0.04240213 -0.09898335 -0.022662092 -0.03493108 -0.024331495 -0.0711475
-0.07600685 0.00843461 -0.042945933 0.0085692685 -0.027752971 -0.059791792 -0.021885294 -0.049874265
-0.06317443 -0.08045167 -0.03864336 -0.05342611 -0.074481755 -0.0401789 -0.042526104 -0.09782826

fc.weight f4 [3, 8192]
00000000: 88a7 6a3c 4553 003d edb8 72bc 5c63 a8bc
00000010: f34a 6bbc d06d 71bc d56d 483c 355d 2f3d
00000020: 6afb 853c fdfe 023d 275a 113c 9e51 0bbc
00000030: 5f23 9ebd c96c 073e fd1e 4bbd 3989 10bc
00000040: 08eb 63bc c4ad d6bc c90a 993c 1de6 9ebc
00000050: aa49 a2bc 2a52 853d 6d21 65bd 2a19 c13c
00000060: b4c7 513d 5484 e03c 14c1 683a 6176 d73b
00000070: 71bd 85bc efcf 0d3d 7856 1d3d f7a0 e23d
00000080: c861 9dbd 2fa3 aabd 2e8d 7c3c a4a6 363d
00000090: 7eec bc3d 4947 0c3d d9e3 853d 463f 663d
000000a0: dd86 dfbd 1c68 a7bd e463 72bc 0886 633d
000000b0: eb20 b73a ab2f 43bd ef4b 9b3c 0241 97bd
000000c0: cbb1 e33a 2ff1 60be 83e7 b0bd 204d d6bd
000000d0: 03da 20bd 3662 5bba c190 2abd 8385 5a3d
000000e0: e8dc 5a3c 2e78 dbbc 861f 19bd ef7e abbc
000000f0: 0d38 773d 9a32 02bd 740c 153e bf7a 173b
00000100: 49cd 93bb 6db0 4ebd 6a98 cabd fc42 8dbd
00000110: db5f adbc 6f09 cc39 7b34 bbbb ef1c 413a
00000120: 36eb 1fbc e63c 5abe 2746 37be 3229 a7bd
00000130: deea 6ebd c0ab 91bb 04ea 623d e33d 1ebc
00000140: 1c66 f83c de63 e5bd 52e1 cabd 3a3a f4bc
00000150: 08f9 563c a568 6a3b e2ed febd 2a0d 2ebe
00000160: b7e6 89bc 6918 23bd 3506 843d 28ee 433e
00000170: 5c2f 0abd 201c 963c 9134 03be 2e56 bbbe
00000180: 1269 e7bc 8339 3abd 3a03 253d cb6f 743d
00000190: 763a a63d fa62 003d a6c2 84bc 5cda 06be
000001a0: bb69 ee3c 08b0 023e 179a 94bd 0151 c43a
000001b0: a3a0 e53b 34e4 173d 13cf 103d add3 15bd
000001c0: 8315 9ebc 8186 48bc 9e63 13be 20b9 68bd
000001d0: 8a27 9ebd a0c7 7e3d 1d1f d23c f237 6c3c
000001e0: b64c 9a3c b746 1d3d 0a9c cb3c cf81 143d
000001f0: 95a6 a93c 2f1e d2bc c271 ffbc d205 9abc
00000200: 0da6 d63c f6b9 6c3c 5e98 82bb 92ef 27bc
00000210: c2bb 2dbd 9c43 41be e068 36bd 4513 43bb
00000220: 0d70 f0bc 073f dabc 4320 0e3d 84d3 1f3d
00000230: 3c1d 1bbe 1f11 40be acee 4abe 8be0 f5bc
00000240: a5b5 8bbc 93df b2bd 9d2a 28bd 80a3 8d3d
00000250: 0da6 8a3d 150d f13c c6c1 8dbe d523 4abe
00000260: 27f8 c6bd 2b9d 2ebd 7aeb 63bd e53e ac3d
00000270: 778a 923d f8b2 24bd e90b 04bd 2831 7fbd
00000280: 463f d53c 8381 09be 9605 bb3c 1464 b43d
00000290: 1e04 743d cfaf 76bc 3cf5 c43d b05d 633c
000002a0: 9106 b2bd 6f73 a7bc 01af cebb 8428 0e3d
000002b0: 84f7 903d f812 633d 737c 3f3c 61c0 24bd
000002c0: 71c5 1dbd 3d84 84bd dc45 16be 2e4c 57be
000002d0: 0882 0cbe 4098 43bd 7bfd c4bc 473c eebc
000002e0: 2bc0 533c b61b 7cbd adac b2bd 3d0e 0cbe
000002f0: 29ec ebbc 6072 f2bc 7e77 883c a046 b43d
00000300: 42dc 91bc ba4f 7a3d be89 61bd c8b3 edbc
00000310: 4671 e7bd baa2 82bb bb26 043c 04b3 193d
00000320: d0b4 98bc 62d3 173d 513c c83b 34e2 193d
00000330: 8249 363b 04ca 593a d892 0fbc eb26 663d
00000340: e366 6b3b 73c3 af3d 1837 703d ea5e 7a3a
00000350: 59d8 d8bc a80b 993b 2c99 2a3d 4016 c13c
00000360: dc2f ad3b ceb5 acbc ceb8 cf3c 163e 57bd
00000370: 2f81 a5bc e122 68bd 594b 4c3d 9ee4 a53c
00000380: f3f9 973d 5d7c d43c c628 b7bc 1b63 33bd
00000390: da66 363d 98d7 35bd b842 76bd 5e8a ba3d
000003a0: b380 d33c 1fcc fdbd 5225 81bc 8bf3 5fbd
000003b0: fe0c d8bc f376 cbbd 082b 48bd 7a11 553c
000003c0: ea6f 1bbc fd9e 83bd 1495 a4bd 8435 083d
000003d0: 0961 13bd ab8f b23d 7fb1 bd3d ef10 cd3b
000003e0: b3a1 063b abc0 ea3c e69a e13d dfb9 043d
000003f0: 2f32 ef3c 14a7 57bd eac5 623d 1a4e 063d
0.014322169 0.031329412 -0.014814598 -0.02055519 -0.014361131 -0.014735654 0.012233217 0.0428135
0.016355235 0.031981457 0.008871592 -0.008503346 -0.0772159 0.13225092 -0.0495901 -0.008821779
-0.013911016 -0.026205905 0.0186819 -0.019396836 -0.019810516 0.06509812 -0.05594008 0.02357157
0.051215842 0.027406849 0.00088788685 0.006575391 -0.016325684 0.03462213 0.03841254 0.11065858
-0.07684666 -0.08331906 0.015414519 0.044592515 0.09224795 0.03424767 0.06537599 0.056212686
-0.10914395 -0.08174154 -0.014794324 0.055547744 0.0013971602 -0.04765288 0.018957106 -0.07385446
0.0017371712 -0.21967004 -0.08637907 -0.10463929 -0.039270412 -0.00083688216 -0.041641954 0.053349983
0.013358332 -0.026790705 -0.03738358 -0.02093455 0.06035619 -0.03178654 0.14555532 0.0023113934
-0.004510556 -0.05046122 -0.09892352 -0.06897542 -0.021163872 0.0003891694 -0.0057130433 0.0007366677
-0.0097606685 -0.21312293 -0.17897855 -0.08162154 -0.058329456 -0.004445523 0.055398956 -0.00965831
0.030322127 -0.11200689 -0.09906258 -0.02981292 0.013120897 0.003576794 -0.12447716 -0.16997209
-0.016833646 -0.0398182 0.064464964 0.19133818 -0.03373657 0.018323958 -0.12813021 -0.36589187
-0.028248344 -0.045465004 0.04028628 0.059676927 0.08116619 0.03134439 -0.016206097 -0.13169235
0.02910315 0.12762463 -0.07255953 0.0014977754 0.007007675 0.037082866 0.03535373 -0.036578823
-0.019297367 -0.0122390995 -0.1439347 -0.056817174 -0.07722385 0.062202096 0.025649602 0.014417635
0.018835407 0.038397517 0.024854679 0.036256608 0.020709315 -0.025649158 -0.031182174 -0.018801603
0.026202226 0.014448633 -0.0039854487 -0.010249989 -0.042415388 -0.18873447 -0.04453361 -0.0029766124
-0.029350305 -0.026641382 0.034698736 0.039020076 -0.15147871 -0.18756531 -0.19817609 -0.030014297
-0.017054388 -0.0873405 -0.041056264 0.06915951 0.06769953 0.029425183 -0.276869 -0.19740231
-0.097153 -0.042630356 -0.05564449 0.08410434 0.07155316 -0.04020974 -0.03223792 -0.06230274
0.026031148 -0.13428311 0.022829812 0.08808151 0.05957424 -0.0150565645 0.09617087 0.013877317
-0.08692659 -0.020440785 -0.006307483 0.034706607 0.0707846 0.055438012 0.011687386 -0.04022253
-0.038518373 -0.06470535 -0.14675087 -0.21025154 -0.13721478 -0.04775262 -0.02404665 -0.029081477
0.012924234 -0.061549865 -0.087243415 -0.13677306 -0.028799133 -0.029595554 0.01665854 0.08802533
-0.017805222 0.06111119 -0.055063 -0.02901639 -0.11300902 -0.0039866837 0.008065875 0.03752424
-0.018640906 0.037066825 0.006110706 0.03756924 0.002781481 0.0008307996 -0.008763038 0.05618946
0.003591948 0.08582201 0.05864629 0.00095508865 -0.02647035 0.004670579 0.041649982 0.02357018
0.0052852463 -0.021082785 0.025356676 -0.052549444 -0.020203201 -0.056673888 0.049876545 0.020250615
0.07420721 0.025938207 -0.02235831 -0.043795686 0.04453168 -0.04439506 -0.06012222 0.09108423
0.025818205 -0.12392449 -0.015764866 -0.05467562 -0.026373383 -0.09934797 -0.048869163 0.013004655
-0.009487132 -0.06426809 -0.08036247 0.03325416 -0.03598121 0.08718809 0.0926237 0.006258122
0.0020543158 0.028656324 0.11015873 0.032403823 0.029198734 -0.052649572 0.055364527 0.032789327

fc.bias f4 [3]
00000000: a1cc 363b bac2 283c 9fba 4d3b
0.0027892964 0.010300333 0.0031391752
